model.tflite (tflite, 96572 bytes, 6 tensors)

sequential/dense/BiasAdd/ReadVariableOp f4 [32]
000000 e5 18 d6 bb 3b 54 e1 3b 67 48 2a bb e1 b8 01 3c
       -0.0065337294 0.006876496 -0.0025983097 0.007917614
000010 8d 89 38 3b 00 00 00 00 23 fd 09 bb f7 78 ae bb
       0.0028158159 0.0 -0.0021055422 -0.0053244787
000020 05 26 af bb c5 17 86 3b 30 b9 c4 bb ef 32 af bb
       -0.0053451085 0.004092189 -0.0060035214 -0.005346648
000030 96 25 af bb e7 17 f5 3b 79 4f ab bb da 12 8f 3b
       -0.0053450568 0.007479656 -0.0052279797 0.004366261
000040 00 00 00 00 a7 24 df 3b 00 00 00 00 79 f3 b8 bb
       0.0 0.006809789 0.0 -0.0056442586
000050 16 55 9d 3b b4 d1 28 3c 7b 88 c5 bb 47 f7 a0 3a
       0.004801403 0.010303903 -0.0060282326 0.0012280726
000060 76 2a af bb 70 76 db bb a1 03 ad bb 27 40 aa bb
       -0.005345638 -0.0066974685 -0.0052799736 -0.005195636
000070 00 00 00 00 88 f6 de bb 00 00 00 00 24 2d 8b 3a
       0.0 -0.006804291 0.0 0.0010618311

sequential/dense_2/BiasAdd/ReadVariableOp f4 [2]
000000 c3 31 d1 bb c3 31 d1 3b
       -0.006384106 0.006384106

sequential/dense_1/BiasAdd/ReadVariableOp f4 [16]
000000 ab 15 d1 3b 5e 4f d1 bb fc 17 af bb c3 65 bb 3b
       0.006380757 -0.006387635 -0.0053434353 0.005718918
000010 84 c8 c4 bb 99 48 d1 bb 00 00 00 00 ff cb 92 bb
       -0.0060053486 -0.006386828 0.0 -0.0044798846
000020 13 5c d1 bb fa 9e 9a bb 90 c8 c4 bb 00 00 00 00
       -0.00638915 -0.0047186585 -0.006005354 0.0
000030 00 00 00 00 09 51 e0 bb 03 59 a7 bb 00 00 00 00
       0.0 -0.0068455976 -0.0051070466 0.0

sequential/dense/MatMul f4 [32, 720]
000000 3c 5e 54 3d d8 8d 9e bc 8a 5e a4 bb 7e 11 cd bc
       0.05184768 -0.019354746 -0.0050161527 -0.025032755
000010 41 0f 96 bd 86 0a f1 3c 3b e8 a0 bd 65 76 a2 3d
       -0.07327128 0.029423963 -0.078567944 0.07932738
000020 a7 ee ad bd 4d e5 be 3d 6c 99 92 3d 05 5d a3 3d
       -0.08492785 0.093210794 0.07158169 0.079767264
000030 72 10 cb 3c 00 33 41 bd 32 9e 19 bd 39 74 89 bd
       0.024788115 -0.047167778 -0.037504382 -0.06711621
000040 41 f8 af bd 43 c7 b3 bd 77 75 56 bc e0 e3 a6 36
       -0.085922725 -0.087782405 -0.013089529 4.9737137e-06
000050 30 c8 84 bd 75 21 a1 bd cc ca 15 3d 16 27 0e 3c
       -0.06483495 -0.078677095 0.036570355 0.008676311
000060 63 04 28 bd e9 db bd bd 2b eb 9c 3d ed e5 7e bd
       -0.04101981 -0.0927046 0.07662042 -0.062230993
000070 cc ec 4d bd d7 c3 06 bd a5 35 8d 3d a5 84 a8 3d
       -0.050274655 -0.03290161 0.068949975 0.08228425
000080 76 88 a8 bc 60 50 2a 3d 3b a0 01 bd 69 5c 8a 3c
       -0.020572882 0.041580558 -0.03164695 0.016889768
000090 ac 89 65 bd f7 1c 94 3d cf 3f 15 bb 75 bf 1c 3d
       -0.056039497 0.07232087 -0.0022773629 0.038268525
0000a0 d0 e2 ab bd 0e 88 a0 3d 94 51 4c bd 85 08 8f 3d
       -0.083928704 0.0783845 -0.049882486 0.06984047
0000b0 93 bb 30 3c 62 44 7a bc 4d b3 96 bd 97 c9 1a 3d
       0.010786909 -0.015275093 -0.07358418 0.037789907
0000c0 b6 87 e4 3c a8 25 56 3d 5e 93 09 bd cb da 96 bd
       0.027896743 0.052282006 -0.033587806 -0.0736595
0000d0 72 d9 72 3d 44 35 74 bd c6 45 8a bd b2 5f a2 bd
       0.059289403 -0.05962111 -0.067515895 -0.07928409
0000e0 d8 49 8c bd 54 7c b2 3c bf 3e 66 3d 6e 1d 20 3c
       -0.06850022 0.0217878 0.056212183 0.009772642
0000f0 e0 0a b8 3d df 54 7e 3d 2e ad b3 bd 91 2b 19 3d
       0.08986449 0.062092658 -0.08773266 0.037395064
000100 f4 6c 83 bd 88 2b 23 bd af eb 23 3d 1f ba 7d 3d
       -0.064172655 -0.039836437 0.040019687 0.061945077
000110 bd 51 a6 bd 5e 6e ec 3c 30 d1 2c 3d f5 6f 96 bd
       -0.08121059 0.02886122 0.042191684 -0.07345573
000120 02 36 2d 3d 6d 3b 14 bb e2 71 75 bd 25 87 ae 3d
       0.042287834 -0.0022618428 -0.05992306 0.085218705
000130 e5 10 5e bd bc 88 68 3c f4 51 88 bc 6c 01 8c bd
       -0.05421533 0.014192756 -0.01664064 -0.06836209
000140 5b e8 92 bd bc 64 42 3d 04 2c 0f bb 41 df 9f 3d
       -0.071732245 0.04745935 -0.0021846304 0.07806254
000150 fe e1 20 3d 25 ef c7 b8 f0 5e 09 bd 37 cd 27 bd
       0.039278023 -9.5336036e-05 -0.033537805 -0.040967193
000160 db 7c cd 3c 88 aa c1 3c 37 c3 2a 3d c4 4d c4 3c
       0.02508395 0.023640886 0.041690078 0.023962863
000170 40 1c 67 3d 1b 52 6c 3d 40 9d e9 bc 55 5a 46 3d
       0.056423426 0.05769549 -0.028517365 0.04842599
000180 40 4d 6e 3d 9c a0 fb 3c 58 94 67 3d 6a ec 64 bd
       0.05817914 0.030716233 0.056537956 -0.055889525
000190 5c ea ad bd af 93 99 3d b1 98 17 3d 86 fa 49 3d
       -0.08491966 0.074988715 0.037010852 0.049311183
0001a0 ba 45 35 bd 9b 4c 66 bd 90 db ad bd 37 6a 32 bd
       -0.04425595 -0.0562254 -0.08489144 -0.043558326
0001b0 6b 56 95 bd 78 67 5c bc 29 c9 2d 3d de 48 47 3d
       -0.072918735 -0.013452403 0.04242817 0.048653476
0001c0 22 66 63 bc 17 6d 8f 3d 0d d4 cb bc 6f 2f c0 ba
       -0.013879331 0.07003229 -0.024881387 -0.0014662574
0001d0 4d 94 18 bc 61 6e 9c 3d dc 30 a0 bd 29 20 82 3d
       -0.009312701 0.076382406 -0.07821819 0.0635379
0001e0 05 70 09 bc 7f e3 98 3d 5d 25 ab bd 65 9c 87 bd
       -0.008388524 0.074652664 -0.08356736 -0.06621627
0001f0 44 15 a2 3b f5 77 85 bd 64 c2 98 3c 05 80 9d 3d
       0.0049463827 -0.065170206 0.01864738 0.076904334
000200 ce 6a 4d 3d b9 9c 91 bd 16 78 81 bd 92 c1 74 bd
       0.050150685 -0.071099706 -0.06321733 -0.059754916
000210 4c 78 9a 3c 7b 84 93 bd 49 c6 ff 3c c5 28 25 3d
       0.01885619 -0.07203003 0.03122248 0.040322084
000220 0e c1 b3 3c 08 8b b3 bb c1 0f 88 bd 16 71 96 bd
       0.021942642 -0.0054792203 -0.0664363 -0.07345788
000230 97 88 a2 3d 42 e8 ed bb 7f 78 79 ba bd 1e 4f 3d
       0.07936209 -0.0072603533 -0.00095165515 0.050566424
000240 48 db c0 3c ec 6d 83 bb 87 72 38 3c 80 f6 18 3d
       0.023542061 -0.0040109064 0.011257774 0.037344456
000250 50 a0 80 3d ff de 83 3d ff 40 77 bd f7 82 7b 3d
       0.06280577 0.064390175 -0.06036472 0.061404195
000260 9d 47 60 3d 75 e3 96 bd ce 5e 7d 3d ab 48 bc bd
       0.054755796 -0.07367603 0.06185799 -0.09193548
000270 a3 84 46 bd f2 3c 22 3d 47 3e 11 3d 7e 78 a2 3d
       -0.048466336 0.039608903 0.035459783 0.07933138
000280 a5 ee 8a bd f6 18 3f 3c da 1d 89 3c ca f1 c2 3c
       -0.06783799 0.011663666 0.016737867 0.023796935
000290 e2 ee 59 3d 5b 73 82 3d 08 b0 a9 bd 18 bc 6b bd
       0.053206332 0.063696586 -0.082855284 -0.057552427
0002a0 19 76 c1 bc 7d 4c 37 3d 5c fa 14 3d 3c bc db 3c
       -0.023615884 0.04475068 0.036371574 0.026823156
0002b0 4c e8 f9 3c bf 2d 70 3b 10 59 94 bd 58 88 77 bd
       0.030506276 0.003664836 -0.0724355 -0.060432762
0002c0 4e 84 db 3b ca 95 89 bd 4e 7d a1 3d 31 86 9c bc
       0.0066991216 -0.06718023 0.07885228 -0.019106956
0002d0 ab af 96 3d 86 16 9a bd 5a 45 4a bc c0 a2 9a bd
       0.07357725 -0.07523827 -0.012345636 -0.07550573
0002e0 b4 94 6d 3d 8c c0 97 3d 3f 58 83 3b 7a 10 d6 3c
       0.058003142 0.07409772 0.0040083225 0.026130904
0002f0 f2 9b 9b 3d 11 52 4f 3d ba a1 01 bd 65 7a aa bd
       0.075981036 0.050615374 -0.031648375 -0.08324126
000300 c3 ed 37 bd c6 e1 ac 3c 5c 5c 81 3c 73 6b 96 3d
       -0.04490448 0.02110375 0.01579111 0.07344713
000310 3c 91 1c bc 75 37 4b bd 51 28 b3 bd 94 e8 bc bc
       -0.009556111 -0.049613435 -0.08747924 -0.02306012
000320 83 8d a2 3c 52 c4 5e 3d 65 b6 cc 3a 9f ed 99 bc
       0.019842869 0.054386444 0.0015618323 -0.018790064
000330 83 6f 25 bd 68 78 5f 3d c7 df 87 bc 7f 92 98 3c
       -0.04038955 0.054558188 -0.016586198 0.018624542
000340 78 a0 53 3d 08 2e 82 3c 29 0a c4 bd d0 f7 aa 3d
       0.051666707 0.01589109 -0.095722504 0.08348048
000350 46 56 ae bd 00 68 53 3d a1 41 1f bd 8a 02 37 3c
       -0.08512549 0.051612854 -0.038880948 0.011170039
000360 e1 87 95 3c 7f e6 90 bd 22 4c 37 bd 34 33 3f 3d
       0.018253269 -0.07075214 -0.04475034 0.04667969
000370 12 6a 85 bd 23 51 75 3d b5 70 b7 bc 27 e5 53 3b
       -0.06514372 0.05989183 -0.02239261 0.003233263
000380 01 11 5e 3c c8 1f bc 3c e8 1a 10 3d 56 c7 57 3d
       0.013553859 0.022964373 0.03518191 0.052680336
000390 84 6d 60 bd 36 b3 bc bb cd 24 75 bd 49 c9 83 bd
       -0.054791942 -0.0057586683 -0.05984955 -0.064348765
0003a0 ae 96 62 3c 7b 47 cc 3c ce c2 81 39 b4 83 87 3d
       0.01382987 0.024936428 0.00024749938 0.06616917
0003b0 64 d6 49 bd 8c 78 fa bc 8a ae 64 bd b7 8f c6 bc
       -0.049276724 -0.03057506 -0.055830516 -0.02423845
0003c0 e6 01 9f 3c ba a7 35 3d 7f 2f 85 bd 21 c8 c5 bc
       0.019410085 0.04434941 -0.065032 -0.02414328
0003d0 67 a0 b8 bc 42 40 7e 3d 7f d2 e1 bc 9a ab 14 bd
       -0.022537423 0.062073 -0.027566193 -0.036296465
0003e0 92 ca a3 3d 1c 66 88 bd 5b 4d 78 bd d7 fb 11 3d
       0.079976216 -0.06660101 -0.060620647 0.035640564
0003f0 b3 e6 06 3d b6 eb 95 bd 28 ab 71 bd 5e f7 88 3c
       0.032934856 -0.07320349 -0.059001118 0.016719516

sequential/dense_1/MatMul f4 [16, 32]
000000 99 a2 5e be ca ad b7 3e 98 a3 7d be 2f 05 b6 3e
       -0.21741714 0.35874778 -0.24769437 0.3555083
000010 29 4a 21 be 09 5b 79 be b1 9c 98 3d 47 b7 99 3b
       -0.15750946 -0.24351133 0.074517615 0.004691038
000020 18 f9 b3 bd 24 ad 2d 3e 45 00 72 be 0e d4 90 3e
       -0.08787745 0.16960579 -0.23632915 0.28286785
000030 a0 1e c7 bd f0 64 b4 3e 8e ee a5 3e 69 3e a3 3d
       -0.09722638 0.3523326 0.32408565 0.07970888
000040 e2 c4 31 be 39 b2 b3 3e 27 cd 88 3e 46 c5 e9 bd
       -0.17360261 0.3509691 0.2671902 -0.1141458
000050 ee 66 03 3e 57 2c 4b 3e d5 19 66 be a0 0a af 3e
       0.12832233 0.19841133 -0.22470792 0.34187794
000060 0b 00 6b bd 24 1e 2d 3e ca 33 4f 3e 5f d2 82 3e
       -0.057373088 0.16906029 0.202346 0.25551125
000070 1c d1 b1 bd fe fe 0e bc c8 7c 0c 3d 06 3b 88 be
       -0.086824626 -0.008727787 0.03429869 -0.2660753
000080 79 6d 47 be f8 fe 35 be da 54 d4 bd 28 56 ef 3d
       -0.19475354 -0.17773044 -0.10367747 0.11686355
000090 de d7 58 be 1e b7 69 3e 9b 9b ca 3c 08 cb 40 3e
       -0.21176097 0.2282376 0.024732402 0.1882745
0000a0 c2 5f 7e be a2 b0 63 3e 18 19 5e be a8 58 37 3e
       -0.24841216 0.22235349 -0.2168926 0.17904913
0000b0 66 82 68 be 55 72 81 3e aa f4 8b 3e e3 ff 38 3e
       -0.22705993 0.2528254 0.273351 0.18066363
0000c0 44 d0 24 be a0 2f d4 bb 36 e7 58 3e eb 73 83 3e
       -0.16095072 -0.006475404 0.2118195 0.25674376
0000d0 fa 30 0d be 61 bf 77 be 4b f7 99 3e 4d 90 89 3e
       -0.13788214 -0.24194099 0.30071482 0.26867905
0000e0 64 9e 67 3e 6a 57 a1 be dd 31 ed 3d 40 9f 2b 3e
       0.22619015 -0.31512004 0.11581776 0.16759968
0000f0 e0 0f ed 3d 32 fb 94 bd ca 74 1a 3e 79 c7 2e 3d
       0.115752935 -0.07274474 0.15083614 0.0426707
000100 de eb 52 3e 5c 5a b7 3d 09 76 8f be 14 c7 09 be
       0.20597789 0.089527816 -0.2801974 -0.13454849
000110 bc dc 66 3e 9e 99 6d 3e e7 c4 ac be 0f c7 9d be
       0.22545141 0.23203132 -0.33743975 -0.30815932
000120 b2 d1 88 3e 94 10 51 3e 40 3c 83 3c 60 51 a3 bd
       0.26722485 0.2041648 0.01601994 -0.079745054
000130 9c a1 ac 3e 00 9a 0a 3d 80 e2 ad bb 5e 0e 9b be
       0.33717048 0.033838272 -0.005306542 -0.302844
000140 2e e4 46 3e d4 18 49 3e e0 b1 27 3c 4b d8 96 3e
       0.19422981 0.19638377 0.01023528 0.29461893
000150 eb bf cf 3b cc 16 ba 3d ab 4b 05 be 1b 74 68 3c
       0.006340017 0.090863794 -0.13017146 0.014187838
000160 12 13 49 be 1a 9f 23 3e dd d6 10 be 62 61 6c 3e
       -0.19636181 0.15978661 -0.14144464 0.23084024
000170 17 39 61 be 80 56 0a bb 1b ca 23 be f8 f9 68 3d
       -0.21994434 -0.0021108687 -0.15995066 0.056879014
000180 b3 55 80 3c 58 54 4c be d7 4e b7 3e 51 88 ac 3e
       0.015665865 -0.1995405 0.35802338 0.3369775
000190 2d 77 cc bd 68 30 e5 3d 64 5d 82 3e c9 25 fc 3c
       -0.099836685 0.111908734 0.25461876 0.030779736
0001a0 12 58 9f bb 94 24 4b 3e 03 8b cc 3c 50 a0 76 3e
       -0.0048627937 0.19838172 0.02496863 0.24084592
0001b0 81 e5 83 3c 5e 89 2c 3e 94 4e ef 3d 76 a8 f3 bc
       0.016100647 0.16849276 0.116849095 -0.029743414
0001c0 0c 97 bc bd 3e 6d 98 3d a0 e3 5f 3c fa d8 b1 bd
       -0.092084974 0.07442711 0.01366511 -0.08683963
0001d0 24 e5 0f 3e ee f0 cf bd cf dc a6 3e 5f 0f 68 be
       0.14052254 -0.101533756 0.3259034 -0.22662114
0001e0 c8 44 a9 3d ae 5b 50 be 7b 1c 59 be 72 c7 b4 3d
       0.08265072 -0.20347473 -0.2120227 0.08827104
0001f0 13 24 91 be d5 fd ff 3d f5 e1 a6 3e a9 26 4c bd
       -0.28347835 0.124995865 0.32594267 -0.049841557
000200 89 9d a6 3e 94 2b e8 bd a3 25 22 3e c7 2a 15 be
       0.32542065 -0.11336437 0.1583467 -0.145671
000210 a6 81 34 3d 0c 81 06 3e 2f 8d a5 3e 16 bf c8 bd
       0.044068955 0.13135165 0.32334277 -0.09802072
000220 8b e2 88 be 6d 74 95 be 7c 25 0f be 26 48 aa be
       -0.2673534 -0.29190388 -0.13979143 -0.3325817
000230 05 8d 89 3e 9b 49 0a 3e 5e 8e 17 3e aa d4 b1 be
       0.26865402 0.13504641 0.14800403 -0.34732562
000240 fe c4 07 3e 73 c8 60 3e 28 7b a2 be 4c cf f1 bd
       0.1325874 0.21951465 -0.31734586 -0.11807117
000250 26 aa a9 be 29 ef 83 bd aa 11 8e bd 68 24 5e be
       -0.33137625 -0.064421006 -0.06936963 -0.21693575
000260 27 7d 8e 3e 85 d8 88 3e 4f 08 88 3e 00 dd 17 3d
       0.2782986 0.2672769 0.2656884 0.037075996
000270 23 f5 86 3e 90 71 84 be 43 ec a2 3e ce ec 49 3d
       0.263589 -0.2586789 0.31820878 0.0492981
000280 05 89 b6 be 62 01 19 3c 01 1d 3b 3e ed bb 82 3e
       -0.35651413 0.009338709 0.18272783 0.25534
000290 47 e7 52 be 2e 1c 0a be 6f 7a a8 be d2 ce e3 3d
       -0.20596038 -0.13487312 -0.3290591 0.11123432
0002a0 d5 40 1f bd 07 ba 57 be ea 81 94 3d 2c 4b e7 bd
       -0.038880188 -0.21067058 0.07251342 -0.11293635
0002b0 eb de 7d 3d 80 4b ff 3a 15 89 aa 3c 7f db a2 3e
       0.06198017 0.0019477457 0.020817319 0.31808087
0002c0 77 3c 96 3e 96 10 8c be d8 bc 82 be 40 8b 8e 3e
       0.29343006 -0.27356404 -0.255347 0.27840614
0002d0 6c 1a 80 3e be 6b 63 3e 86 ac 1e 3e 6f 97 11 bc
       0.25020158 0.22209069 0.154955 -0.008886202
0002e0 9f b4 d3 3c 56 81 ac 3e 8f 59 9f 3e 26 95 a5 3e
       0.025842963 0.33692425 0.31123015 0.32340354
0002f0 4d de a1 3e 38 5f b0 3e 9b 35 87 be 9e 85 6c be
       0.31614915 0.34447646 -0.26408085 -0.23097846
000300 d7 35 ab 3e b0 25 8d bd dc 90 cf bd 0e 72 49 3e
       0.33439514 -0.06891954 -0.101350516 0.19672415
000310 c0 5e 1e 3d 4a cd 50 3e bc 7c 7d be b8 e8 56 3d
       0.03866458 0.20390812 -0.24754614 0.05246803
000320 a2 fa ea bd 6c 24 49 be 40 f9 42 3d 38 7c 57 3d
       -0.11473586 -0.196428 0.047600985 0.0526087
000330 52 41 64 3e de 2d a5 be 46 e3 49 3e e0 10 05 3d
       0.22290543 -0.32261556 0.19715604 0.032486796
000340 1f 4d 39 be 68 22 54 bd c6 56 69 3e 55 05 b1 3e
       -0.18095826 -0.051790625 0.22787008 0.3457438
000350 2c 63 5f be 38 8f 66 be a8 7c 4e bd a4 9b bc bd
       -0.21815175 -0.22515571 -0.05041185 -0.092093736
000360 28 69 29 3d ee 07 7a 3e b2 3a 50 3e 3d 2b 1d be
       0.04136005 0.24417087 0.2033489 -0.15348525
000370 95 9d 83 3e f2 43 9a be e7 0e 89 be 82 be 48 be
       0.25706163 -0.30129963 -0.26769182 -0.19603923
000380 18 d5 87 3e dd 13 ba bd a8 d5 8c 3e fb 28 af 3e
       0.26529765 -0.0908582 0.27506757 0.34210953
000390 f8 fc 34 be 90 77 a6 bd 4f c7 9a be 6c e8 81 3e
       -0.17674625 -0.081282735 -0.30230185 0.25372636
0003a0 09 62 05 be 73 60 a3 bd 3c f4 bb 3d 88 34 37 3c
       -0.13025679 -0.079773806 0.091774434 0.011181958
0003b0 81 f3 00 3e d1 8e 6d 3d 7e db ad 3e af c8 6b 3e
       0.1259289 0.05799753 0.33956522 0.23025773
0003c0 80 26 40 bd 7d e4 a3 3d 7a f2 05 3e 51 9e aa be
       -0.046911716 0.08002565 0.13080779 -0.3332391
0003d0 83 5b 29 be ab 61 bf bd ce 9b ac be 16 cf ab be
       -0.16538815 -0.093448006 -0.3371262 -0.33556432
0003e0 7a 55 24 be ac a2 01 3e 59 2c 98 3e 55 66 1a 3d
       -0.16048232 0.1265971 0.29721335 0.037695248
0003f0 0c 56 a0 3d a3 cf ab be ce 3c 26 3e 9b 43 49 3e
       0.07828912 -0.33556852 0.16234133 0.19654696

sequential/dense_2/MatMul f4 [2, 16]
000000 e6 b0 f3 be aa 25 05 3e 42 68 4a 3e d5 7f 26 3d
       -0.475959 0.13002649 0.19766334 0.040649254
000010 54 61 b5 3e a7 10 c2 bd 90 82 dd 3e b1 24 0e 3f
       0.35425818 -0.094758324 0.43263674 0.55524737
000020 b1 c4 96 be d0 fa ae 3e 06 72 ae 3e c0 54 3a 3c
       -0.2944694 0.3417573 0.34071368 0.011372745
000030 7c c5 f6 3e cd 3d 5c 3e fc 69 8a 3e 80 fd 87 be
       0.48197544 0.2150795 0.27033985 -0.26560593
000040 0a 18 3f 3d 70 49 30 be 7b 32 86 3e 93 2e 14 3f
       0.046653785 -0.17215514 0.2621039 0.57883567
000050 ad d4 8e be f8 00 fe be e8 36 f6 3d aa 99 ff be
       -0.27896634 -0.49610114 0.12022191 -0.49921924
000060 6c c0 01 bf fd cb 17 3e 9a 18 a3 be 45 63 0b bf
       -0.5068424 0.14823909 -0.31854707 -0.5444835
000070 c0 3b 36 3c 99 35 fa bc 26 ee 20 be 13 35 a7 be
       0.011122644 -0.030543135 -0.15715846 -0.3265768
