Host/model.tflite (tflite, 96360 bytes, 6 tensors)

dense_2/bias f4 [2]
000000 ad 6d 1a 3e ad 14 23 3e
       0.150809 0.15925856

dense_1/bias f4 [16]
000000 f8 18 d7 3b 23 8a cc 3e 4c bc 95 3d fd 75 f8 bb
       0.006564256 0.3994914 0.073113054 -0.0075824247
000010 31 b5 ec bb 51 5c 80 3e ea 22 ed bb 25 94 1f bc
       -0.007223748 0.25070432 -0.007236828 -0.00973991
000020 29 e8 ed 3d 94 0d e1 3b 45 a5 c4 bb a2 c5 e3 3e
       0.11616547 0.0068680737 -0.006001147 0.4448672
000030 c3 c7 c4 bb d2 d0 be 3b 4a 5e e1 bb 78 af 26 3e
       -0.0060052588 0.005823233 -0.006877695 0.16277874

dense/bias f4 [32]
000000 8f 1f b6 3d b1 7f e4 3d 08 c5 c4 bb a2 2d df 3e
       0.08892738 0.11157168 -0.0060049333 0.43589503
000010 8d 9e c4 bb 00 00 00 00 d6 4c 69 3f e2 f1 b4 bb
       -0.006000346 0.0 0.9113287 -0.0055219987
000020 74 ff 2e 3d d1 9a c4 bb 0f 96 e1 bb bb 07 c2 bb
       0.042724088 -0.005999901 -0.0068843435 -0.0059213317
000030 c9 f7 b0 bb 76 36 f2 ba f4 6c fc 3e 57 bb d8 bb
       -0.005400632 -0.0018479365 0.49301875 -0.0066141295
000040 d0 60 ea bb ef f3 19 3d df 51 0f bc 56 5b cd 3e
       -0.007152654 0.03758615 -0.008747547 0.40108746
000050 00 00 00 00 f6 43 cd bb a5 e9 03 bc ef b5 2d 3f
       0.0 -0.006264205 -0.008051311 0.67855734
000060 e3 48 f4 bb c6 45 fd ba a0 ec de bb 52 53 09 bc
       -0.007454978 -0.0019323162 -0.0068031102 -0.0083816815
000070 cc b4 c4 bb 79 f6 f1 bb 75 08 c5 bb 11 ba 5e bb
       -0.006002998 -0.007384118 -0.006012971 -0.0033985416

sequential/dense/MatMul f4 [32, 720]
000000 4e 67 a7 3e de 34 36 be 03 c5 2b 3e 15 c5 11 3f
       0.32696003 -0.17793605 0.16774373 0.5694135
000010 86 b8 0b 3f c9 dd a7 bc e1 33 2f 3e 80 e7 df 3e
       0.54578435 -0.020491498 0.17109634 0.43731308
000020 e0 77 b9 3b 30 0f f7 3e 61 55 9a 3e 60 9b ae 3e
       0.005660042 0.48253775 0.30143264 0.34102917
000030 88 54 08 bf a9 be ed bb b5 08 cd 3d ba 40 67 3f
       -0.53253984 -0.0072553945 0.10011426 0.9033314
000040 ff 0f c0 3e a0 a9 14 be e7 79 81 be 40 ce 93 3e
       0.37512204 -0.14517832 -0.25288317 0.28868294
000050 3c 03 3f 3f 81 31 91 3d c2 b8 5c 3e ac 6f 8f 3e
       0.7461431 0.0708952 0.21554855 0.28014886
000060 d4 5d 98 3e 53 e5 46 3e c8 8b 48 3e f9 b0 57 3e
       0.29759085 0.19423418 0.19584572 0.21063603
000070 d5 0e 2e be 88 a9 18 bd b5 9e f3 3e 2f 26 07 3f
       -0.16997845 -0.037271053 0.4758202 0.5279264
000080 85 a5 c5 3c 84 46 ee 3d b3 df 03 bf 86 61 27 be
       0.024126777 0.116345435 -0.5151321 -0.16345796
000090 40 28 68 be 4f 0e 1b 3f 20 ff 13 3e 42 cd 08 3f
       -0.22671604 0.6056871 0.14452791 0.534382
0000a0 8c dd a1 be d9 d4 d2 3d b5 18 03 bd 05 58 8f be
       -0.3161434 0.10294504 -0.032005984 -0.2799684
0000b0 12 1d 85 ba fb fe 33 3e f6 a4 d6 3e 68 e4 95 3d
       -0.0010155758 0.17577736 0.4192273 0.07318956
0000c0 60 ce 6f bd e0 cc c9 be 1f 8e 27 3e bc f6 04 bf
       -0.058546424 -0.3941412 0.16362809 -0.51938987
0000d0 a1 01 2c be 9b fc fb bc 7d 21 ab 3e 24 e5 28 bc
       -0.16797496 -0.0307601 0.33423987 -0.010308538
0000e0 cf 57 d3 3d 1a 32 a3 3c 40 21 95 bd 9d 7a 22 bf
       0.103194825 0.019921351 -0.072817326 -0.63468343
0000f0 6e 14 06 be e0 89 32 3e 1c e5 35 bd 9e d6 6b 3e
       -0.13093731 0.17435408 -0.04440795 0.23031089
000100 c6 9c c2 3e 3b 0e c6 be ee e6 e9 3e f0 9f 4c bf
       0.38010234 -0.38682732 0.45683998 -0.79931545
000110 37 a5 98 3d 88 19 c7 be b4 aa 21 be 20 d4 c7 bd
       0.07453387 -0.38886666 -0.15787774 -0.097572565
000120 58 3c 44 3e 31 8d f8 3d 0f 0c d1 bc 84 c8 44 3e
       0.19163644 0.12136305 -0.025518445 0.19217116
000130 63 b6 46 3d 07 00 2d bd 9a 61 36 3e 61 42 55 3e
       0.04851378 -0.042236354 0.1781067 0.20826103
000140 1a e6 be 3e c7 d3 3d 3f d5 b5 59 3e 8d bd dd bd
       0.3728493 0.7415127 0.2126077 -0.108271696
000150 1f 53 60 3e 73 e0 a0 be b9 b2 70 3e 79 e3 ee 3e
       0.21906708 -0.3142124 0.23505677 0.46657923
000160 09 1e 07 3f 91 85 9d 3e fc db f7 be 87 da d1 3e
       0.52780205 0.30765966 -0.48410022 0.40987036
000170 cf 7c 66 3e 14 9c 68 be 04 e2 ac 3e 12 9e 2f 3f
       0.22508548 -0.22715789 0.33766186 0.6860057
000180 3e 5a 8c 3e ec dd fe 3d 5d 61 91 3e d4 6b 02 3a
       0.274126 0.12444672 0.28394595 0.0004975174
000190 cb 55 68 be 70 72 8e 3e 0c 2f 29 be 67 80 94 be
       -0.22688977 0.27821684 -0.16521853 -0.29004213
0001a0 91 e6 aa 3e a4 1a 92 be 6d a2 c6 3d 54 94 51 be
       0.33379033 -0.2853595 0.09698949 -0.20466739
0001b0 89 73 bc 3c bb 6e 1b 3f a2 f2 dd be 65 a2 34 bf
       0.02300431 0.60715836 -0.43349177 -0.70560294
0001c0 d4 e9 00 be b8 bd 0d bc ee 4b 6b 3e 63 44 46 3d
       -0.12589198 -0.0086511895 0.22978184 0.048405062
0001d0 cb 3b 29 3f 9a 96 83 3d 93 37 75 be 00 39 a1 bd
       0.6610686 0.06425209 -0.23946981 -0.078722
0001e0 92 f3 b6 3d 0b c6 87 be 37 29 f9 bd 63 8f 9e bd
       0.08933176 -0.26518282 -0.12166064 -0.077421926
0001f0 d1 a8 41 bf 88 3a fc bd ff f3 7e 3d dd 68 c4 3e
       -0.7564822 -0.123158514 0.06224441 0.38361254
000200 33 f9 9d be dc 0d a3 3e 6e 63 1f bd 9a c3 43 be
       -0.30854186 0.3184651 -0.038913183 -0.19117585
000210 b3 67 54 be 22 3a 01 3f c7 35 60 3e 52 d7 11 3e
       -0.20742683 0.5047933 0.21895514 0.14242294
000220 fe 5e 0d 3f 5b c4 a0 bd cc 96 e0 3e 6b aa 93 3e
       0.5522307 -0.07849952 0.4386505 0.28840956
000230 11 be 3a be 02 d8 85 3e 90 97 97 be d6 0d 58 be
       -0.18236567 0.26141363 -0.2960782 -0.21099028
000240 3e 37 b2 3e be c3 99 be 27 a7 05 bf 59 fa 8e 3e
       0.3480777 -0.30032152 -0.5220818 0.27925375
000250 46 13 08 3f 38 71 14 be 17 08 7a bd 95 5c cf 3c
       0.5315441 -0.14496315 -0.06104287 0.025312701
000260 d8 fa 6d 3e 47 fe 6c 3e be 8b b4 be 0e 00 3e bc
       0.2324022 0.23143874 -0.35262865 -0.011596693
000270 22 e8 54 3e 06 f3 b9 be 9a 62 8e be e1 c8 2f 3d
       0.20791677 -0.36318225 -0.27809602 0.042916182
000280 69 69 73 be 20 bd ac be b7 9d 72 3e cb 10 ad be
       -0.2377068 -0.3373804 0.23692976 -0.33801875
000290 ee 17 15 3e ce 6d ed 3c b5 1c 3b be aa df af 3d
       0.1455991 0.028983023 -0.1827267 0.085875824
0002a0 53 e7 77 3e c8 a2 4f be 4f 44 9d be 08 0d d3 be
       0.24209337 -0.2027694 -0.30716178 -0.4122088
0002b0 be a0 4b 3f 9e d1 40 be 38 d2 cc 3e 95 34 a8 be
       0.7954215 -0.18829963 0.40004134 -0.32852617
0002c0 21 5a 83 bd 8f d8 ad 3e eb 3c 26 bc 58 d8 8c be
       -0.06413675 0.33954284 -0.01014636 -0.27508807
0002d0 e4 77 2e bd 19 65 3d 3f 9e 64 e9 be dd e5 b3 3e
       -0.042594805 0.7398239 -0.45584577 0.3513631
0002e0 05 be e5 3e 1c a5 a3 be 17 ad a8 be 6f c4 96 3e
       0.44871536 -0.31961906 -0.32944557 0.29446742
0002f0 3a dd a9 bc f0 e9 2c bd c6 3b 00 3e 6a f2 cd 3d
       -0.020735372 -0.042215288 0.12522802 0.100560024
000300 8d 0b 83 3e 14 44 a3 be af 69 2a 3f b3 2b 1b be
       0.2559475 -0.31887877 0.6656751 -0.15153389
000310 d7 7b 5c 3e 7a 21 65 be 74 60 85 bd 31 ad 00 3e
       0.21531616 -0.22376052 -0.065125376 0.12566067
000320 f1 93 80 bc 05 8b b0 3e b8 d0 7e 3e f5 2f e1 3e
       -0.015695544 0.34481063 0.24884307 0.439819
000330 ca b7 98 3e df 7b 94 3d d0 3e f7 be 58 28 fb 3d
       0.2982772 0.07250189 -0.4829011 0.12263554
000340 f8 56 aa 3d 21 c6 d4 be 89 1d 05 3d 2e 95 07 3f
       0.08317369 -0.4155741 0.03249887 0.52962005
000350 e4 8c f8 be 30 24 f0 3d 23 63 19 bf 28 00 a7 be
       -0.4854499 0.11725652 -0.59916896 -0.32617307
000360 23 44 c9 3b e0 f0 63 be f1 d1 d6 3e e2 d9 99 bd
       0.0061421557 -0.22259855 0.41957048 -0.07512261
000370 4d c6 91 be db 7d d5 3e 89 be 8a 3e 4b e7 13 3e
       -0.28471604 0.41697583 0.27098492 0.144437
000380 9a 2b 50 be 2e ed 3b be 79 d0 fa bd 0c 60 03 3f
       -0.20329133 -0.18352196 -0.12246794 0.5131843
000390 d9 e1 96 bc b5 5d 49 bc ed 9b 11 3c a7 79 44 3f
       -0.01841824 -0.012290408 0.008887273 0.76748127
0003a0 03 00 32 3f a0 d2 b9 3b ca 5e 4a be 41 e2 e0 be
       0.6953127 0.0056708604 -0.19762722 -0.43922618
0003b0 88 ba db 3d e1 3a a0 3e 4e 01 26 be b3 da 86 3e
       0.107289374 0.3129492 -0.16211435 0.2633873
0003c0 b5 ab 08 3e 7a 5c 4f 3d a1 ec 44 be 3a 41 cd be
       0.13346751 0.050625302 -0.19230892 -0.40088826
0003d0 73 73 ec 3e 7b aa ad bd 53 40 bc 3d fa e3 7f be
       0.4618183 -0.08479782 0.09191956 -0.2498931
0003e0 9e fe ed 3e 58 44 8f 3e 66 72 0a 3e a2 67 a0 3e
       0.4648332 0.2798183 0.13520202 0.31329066
0003f0 cd 93 62 3e b9 f3 27 3e 38 03 de 3c 54 88 98 bd
       0.22126694 0.16401567 0.027101144 -0.074478775

sequential/dense_1/MatMul f4 [16, 32]
000000 da ad 1d be 5d 2f a3 3e 62 fc 7e be 7f 0d 72 be
       -0.1539835 0.31872073 -0.24900964 -0.23637961
000010 18 a6 69 be e8 d0 a3 3d cc 73 1c be 92 ed 6f be
       -0.22817266 0.0799883 -0.15278548 -0.2343047
000020 8f ea be bd 4a cb 46 3e f7 08 40 be 53 f1 83 3e
       -0.09322082 0.19413486 -0.1875342 0.25770053
000030 06 d7 70 be 52 13 b1 be 4d b0 da 3d 82 da 11 bd
       -0.23519525 -0.34585053 0.10678158 -0.035608776
000040 29 91 2f 3e 6c f8 99 3e 83 79 11 be 85 b6 5d be
       0.17145218 0.30072343 -0.1420651 -0.21651657
000050 b8 6f a3 be 73 91 f8 bc d3 4e db 3d b2 3c 49 be
       -0.31921172 -0.030342793 0.10708394 -0.1965206
000060 26 c5 a5 3e 51 ec 0b be f1 77 99 3e 28 6f 8c be
       0.32376975 -0.13664366 0.2997432 -0.27428555
000070 b4 ed 6a 3e d5 6d 65 bd 98 84 9c bd 33 56 8e be
       0.22942239 -0.056012947 -0.07642478 -0.2780014
000080 d7 08 97 3f a7 8e 61 3c c2 36 49 3e 54 f2 9d 3f
       1.1799573 0.013766921 0.19649795 1.2339578
000090 d0 23 ed 3d 26 39 59 3e 28 4c b4 3e 62 87 09 be
       0.11579096 0.21213207 0.35214353 -0.1343055
0000a0 9d 0e db be a4 ee bc bd 19 96 bd 3c ee b5 3d be
       -0.42784587 -0.092252046 0.023142861 -0.18526432
0000b0 6a 59 56 be 16 c9 fb bd 39 0c 7a 3f ab b3 34 3d
       -0.20932546 -0.122942135 0.976749 0.044116657
0000c0 f5 af 65 bd c4 a0 d3 bf d4 31 57 be 0e 42 8a 3f
       -0.05607601 -1.6533437 -0.21015102 1.0801408
0000d0 67 bc 8b 3e 06 a5 86 3d 28 14 4c be 62 fd 77 3f
       0.27292177 0.065744445 -0.19929564 0.96871006
0000e0 81 d0 8e be 5b 0c 73 be 17 7c b7 be 9e 9e 62 be
       -0.2789345 -0.23735182 -0.3583686 -0.2213082
0000f0 b8 4b 30 bd 9b 66 79 bd 93 18 06 3e eb 3c 2b bd
       -0.04304096 -0.060888868 0.13095312 -0.041806143
000100 46 25 ff be 53 1c 39 3f bd 86 22 be 5a f8 67 3e
       -0.49833125 0.72308844 -0.15871711 0.22653332
000110 3b 73 fa bd d8 ad 73 be 7a d3 b0 bd fd 53 29 3d
       -0.1222901 -0.23796785 -0.08634086 0.041339863
000120 e9 b7 82 3f f3 9c 83 bd a8 10 76 3e ff 81 23 3e
       1.0212375 -0.0642642 0.24029791 0.15967558
000130 f6 7b a4 be b7 8a 95 3e d2 a0 64 3d 2b 68 8e 3e
       -0.32125825 0.29207394 0.055817433 0.2781385
000140 64 bd f4 bd 24 48 ab 3f c0 54 d5 bc f8 1a 56 be
       -0.11950186 1.338139 -0.026041389 -0.20908725
000150 26 3b 50 3e a7 54 3f be 7b b6 1f 3e 23 65 49 3d
       0.20335063 -0.18684636 0.15596955 0.049168717
000160 f9 20 64 be 46 d3 ea bb 39 77 26 be ef 9f 33 3e
       -0.22278203 -0.007166299 -0.16256417 0.17541479
000170 cd 3f 7a be 0a ef af 3e 58 40 0b bd 84 8e 72 3d
       -0.244384 0.3436206 -0.03399691 0.059217945
000180 7f 8a 90 3e a4 d8 a4 be 78 d9 95 be d5 2f 7c be
       0.28230664 -0.32196534 -0.29267478 -0.24627621
000190 a8 60 06 3d 8b b3 56 be ee 1a 08 3e 53 e1 07 be
       0.032807022 -0.20966928 0.13291523 -0.13269548
0001a0 b0 13 cc bb 69 56 9e be 14 2d 70 be bf 07 ae be
       -0.006227933 -0.309253 -0.23454696 -0.33990285
0001b0 fc a0 99 3e 60 b6 f2 bc 06 ab 9d 3d 56 18 6e 3e
       0.30005634 -0.029627979 0.07698636 0.23251471
0001c0 c4 c8 6d be 05 c1 b2 be 5f ce 7e be dd e1 a7 be
       -0.23221117 -0.34912887 -0.24883412 -0.32789508
0001d0 60 b7 49 bd 23 11 94 3e 29 7d a2 3e 16 ca ba 3d
       -0.049247146 0.28919324 0.31736115 0.09120576
0001e0 d2 53 36 be 42 63 79 be 19 8c 28 be d2 f3 8c be
       -0.17805412 -0.2435427 -0.16459693 -0.2752977
0001f0 ea 4c 7d be 1f 56 39 3e b2 6e 95 be bc 37 ec 3d
       -0.24736372 0.18099259 -0.29186016 0.11534068
000200 d1 50 f4 bd 21 8f 37 be 6c 9d 8d 3e 79 73 25 be
       -0.11929477 -0.17925693 0.27659166 -0.1615733
000210 80 a0 5d bc 6e 3e 35 3e 2a 5b 8c be 67 06 8b 3b
       -0.013527036 0.17699596 -0.27413303 0.0042427066
000220 37 1b 5c 3e 1a 97 1b 3e 14 00 a0 3e 3e 7b a0 bd
       0.21494757 0.1519436 0.3125006 -0.078360066
000230 22 5e 88 3e 00 81 42 be af 34 7f 3d 00 44 98 3e
       0.26634318 -0.18994522 0.062306102 0.2973938
000240 5e fb 45 3e 15 14 56 be a3 74 ea 3c fa fd 44 be
       0.1933417 -0.20906098 0.02862007 -0.1923751
000250 a4 8c 81 bd d3 c9 33 be 28 22 69 3c fb 69 ad be
       -0.06325653 -0.17557459 0.014229335 -0.3386992
000260 99 6c 97 3e a9 ef 13 be 20 4e a7 3d 72 d2 58 bd
       0.2957504 -0.14446892 0.08169198 -0.05293507
000270 7c e9 34 be 6f 84 a3 3e b1 bd 50 be c3 a8 68 3e
       -0.17667192 0.31936976 -0.20384862 0.22720627
000280 60 2f 42 3f ca 67 1a bf 8d 83 92 3e dc 30 0b 3f
       0.7585354 -0.6031462 0.2861599 0.5437143
000290 28 93 b4 3d 99 6f 44 be 34 9b 03 3f b9 3e 82 3e
       0.0881713 -0.19183196 0.51408696 0.2543848
0002a0 46 e1 34 bf 9c f8 a1 be ca 6c 99 be 57 cd 86 be
       -0.7065624 -0.31634986 -0.29965812 -0.26328537
0002b0 a8 72 53 bd e8 57 76 be da 46 04 3f 73 3c 15 be
       -0.051623017 -0.24056971 0.5167061 -0.14573841
0002c0 84 01 52 be 71 21 d9 bf 82 82 e4 bd fb 5d 55 3f
       -0.2050839 -1.696333 -0.11157705 0.8334653
0002d0 39 81 91 3e 99 ff 9e 3e 0a 80 0f be ac 7e 1e 3f
       0.28418902 0.3105438 -0.14013687 0.61912036
0002e0 68 17 87 3d fa 17 63 be 10 58 b2 be 3a f4 92 be
       0.06596261 -0.22177115 -0.3483281 -0.28701955
0002f0 f8 48 0a 3e 18 99 81 3d 60 5c da 3d 4c 62 0a 3e
       0.13504398 0.063280284 0.106621504 0.1351406
000300 8c 5f 2e be 7e 97 74 be 60 18 af bc 85 00 8c 3d
       -0.17028636 -0.23885915 -0.021373928 0.068360366
000310 ff 36 d9 bb 48 36 28 3d 35 de 75 be c8 de 9e bd
       -0.0066288705 0.04106739 -0.24010547 -0.07757336
000320 d6 98 16 3e dd f3 24 be 50 72 ad be ba ef 54 3e
       0.1470674 -0.16108651 -0.33876276 0.20794573
000330 e4 68 7a 3d 8a 50 0c 3e 02 9d 25 3e a2 f2 06 be
       0.061135188 0.13702598 0.16173175 -0.13178495
000340 d0 e4 5b be a8 80 20 bd 8f 2a 0b bc 42 e1 ce bd
       -0.21474004 -0.039185196 -0.0084940335 -0.10101558
000350 ac 98 87 bd 16 ee 7d bd 22 2f 43 3e 0c 44 92 be
       -0.06620917 -0.061994635 0.19060948 -0.2856754
000360 05 ae 88 3b 1e 62 5e 3d aa db 9d be aa aa a9 3e
       0.0041711354 0.05429279 -0.30831653 0.3313802
000370 fd b3 64 be d4 6b 12 3e a6 08 d9 3d fa 72 83 3e
       -0.22334285 0.14298946 0.10597353 0.25673658
000380 57 54 78 be 15 f1 a6 be 2f fd a1 be de 6b 1e bd
       -0.24250923 -0.32605806 -0.31638476 -0.03867709
000390 02 81 12 3e fe 94 7e 3e 6a 40 cc 3d 5a 4d 08 be
       0.14307025 0.24861524 0.099732235 -0.13310757
0003a0 a8 0c 17 3e 0d 19 9b 3e 1d fb 0b 3d c6 6d 63 3b
       0.14750922 0.3029255 0.034175027 0.0034702881
0003b0 63 9e 45 be 58 12 00 bd 89 97 9f be 2a ba 22 be
       -0.19298701 -0.031267494 -0.311703 -0.15891328
0003c0 f8 ba 54 be e9 6c 9b be 35 df 8f 3e b2 96 b9 bd
       -0.20774448 -0.3035653 0.2809998 -0.09061946
0003d0 12 54 2d 3e fb 8c b1 3e 92 21 a0 be 57 3c fd bd
       0.16926602 0.34677872 -0.31275612 -0.123650245
0003e0 2c 13 9d 3d 52 3d 55 3e 7d 43 58 be 29 b4 2e be
       0.07669672 0.20824173 -0.21119495 -0.17060913
0003f0 f6 da a1 bc e4 f6 73 3e a0 5e 8f be b0 85 69 be
       -0.019757729 0.2382465 -0.2800188 -0.22804904

sequential/dense_2/MatMul f4 [2, 16]
000000 e7 1c 99 3e 82 ad 13 3f ed 9f 34 bf a3 ec 50 3e
       0.29904863 0.57686627 -0.7055653 0.2040277
000010 2a ca d1 be d2 7c 8b 3f 24 9f f3 be f9 7c 00 3f
       -0.4097455 1.0897467 -0.47582352 0.50190693
000020 44 65 af bf 6a c0 0a 3f 04 92 85 3d af d9 0a 3f
       -1.3702779 0.5419985 0.06521991 0.5423841
000030 fb 39 55 be fa c9 b3 3e e3 40 e9 be 32 65 aa bf
       -0.20822899 0.35115033 -0.45557317 -1.3312132
000040 54 af f0 3d 02 ed 4c 3f 19 d7 87 bf d3 a8 ef be
       0.11752191 0.80049145 -1.0612518 -0.4680849
000050 fc aa f4 3e fd cf 07 3f 74 65 29 3d 0e 16 c7 3e
       0.477867 0.5305174 0.04135652 0.38884014
000060 40 f4 b6 bf c2 90 36 be 4e 6f 33 3e 29 7f 32 3f
       -1.4293289 -0.17828658 0.17522928 0.6972528
000070 82 f4 96 3e 98 07 e1 3e 96 2d 72 3e 49 f2 95 bf
       0.2948342 0.43951106 0.23650202 -1.1714565
