Host/model.tflite (tflite, 20776 bytes, 5 tensors)

dense_1/bias f4 [16]
0	0x3d53ae38	0.05167982
1	0xbc0bb367	-0.00852666
2	0xbc02da7f	-0.007986664
3	0xbdada2f3	-0.08478346
4	0x3e74f631	0.2392204
5	0xbc72b7a9	-0.014814296
6	0xbaf0da29	-0.0018375564
7	0x3d2889b8	0.041146964
8	0xbc2e86fc	-0.0106523
9	0x3e3a36a4	0.18184906
10	0xbe757258	-0.239694
11	0xbe126292	-0.14295414
12	0xbca52f96	-0.020164292
13	0xbc05253b	-0.008126552
14	0x3b5668b2	0.0032716212
15	0x3ba8b1bb	0.0051481402

dense/bias f4 [16]
0	0xbc7d63f9	-0.01546573
1	0xbc878350	-0.016542107
2	0xbc8c8a3c	-0.017155759
3	0xbc68d565	-0.0142110335
4	0xbc827c84	-0.015928514
5	0xbbd1ccb5	-0.006402577
6	0xbce47b7f	-0.027890919
7	0xbc79c604	-0.0152449645
8	0xbcc73eb9	-0.0243219
9	0x3d33814c	0.04382448
10	0xbcac7d0c	-0.02105572
11	0x3ddee921	0.108843096
12	0xbca4bf26	-0.020110678
13	0x00000000	0.0
14	0x3dcd4bba	0.10024209
15	0x00000000	0.0

sequential/dense/Tensordot/MatMul f4 [16, 200]
0	0x3e028b85	0.12748535
1	0x3e091c15	0.13389619
2	0xbd1bbca7	-0.03802171
3	0x3d3cd155	0.046098072
4	0x3d88680d	0.06660471
5	0x3d87adbf	0.06624936
6	0xbccd07c3	-0.025028115
7	0xbdef7591	-0.11692346
8	0xbcb6f2f0	-0.022332639
9	0xbd02058f	-0.031743582
10	0x3d38dff2	0.045135446
11	0xbdf1f974	-0.118151575
12	0x3caab090	0.020836145
13	0xbd983560	-0.074320555
14	0x3e1417db	0.14462225
15	0x3e0f2ade	0.13981196
16	0xbdfa9b45	-0.122366466
17	0xbde21390	-0.110388875
18	0xbe01687e	-0.12637517
19	0x3db93cde	0.090448126
20	0x3d2f4b29	0.042796288
21	0xbdd5c10d	-0.10437212
22	0x3e0d1373	0.1377695
23	0xbd8c2db9	-0.068446584
24	0xbe16d896	-0.14731058
25	0x3ded46f8	0.11585802
26	0x3e108a20	0.1411519
27	0xb9cbdffc	-0.0003888606
28	0x3dfea0e7	0.124330334
29	0x3d0dafe4	0.03459157
30	0xbdea27a4	-0.11433342
31	0xbe35303c	-0.17694181
32	0x3d9d8145	0.07690672
33	0x3cdbf4f2	0.026850197
34	0xbc93c322	-0.018037383
35	0xbe1ea8da	-0.154941
36	0x3d881e46	0.06646399
37	0xbdfadc9c	-0.12249109
38	0xbc78752c	-0.015164655
39	0x3dd6bf2b	0.10485681
40	0xbe06421e	-0.13111159
41	0xbdc67f54	-0.09692255
42	0x3dd50125	0.10400609
43	0xbdab10e8	-0.08352834
44	0xbd881aaf	-0.066457145
45	0x3ddb8184	0.107180625
46	0x3e1244d9	0.14284076
47	0xbdf5fbae	-0.12010895
48	0x3c4e3bb0	0.012587473
49	0x3ae47aaa	0.0017431576
50	0xbe1c355b	-0.15254728
51	0x3dd860f7	0.105653696
52	0xbd9b4d78	-0.07583135
53	0x3dbd63e8	0.09247571
54	0x3e165ae7	0.14683114
55	0x3de239aa	0.11046155
56	0xbe12d661	-0.14339592
57	0xbe39cab9	-0.18143739
58	0xbd21aa6e	-0.039469175
59	0x3e0dd4b0	0.13850665
60	0xbd87a97e	-0.06624125
61	0xbdc6d0fd	-0.0970783
62	0x3c923070	0.017845362
63	0xbe2f79d8	-0.17136323
64	0x3e1ed51a	0.1551098
65	0x3e0d0567	0.13771592
66	0xbe151cb9	-0.14561738
67	0x3e12b67b	0.14327423
68	0xbd45c015	-0.048278887
69	0xbe0054b6	-0.12532315
70	0xbbf51358	-0.0074791126
71	0xbe019483	-0.12654309
72	0xbe2737ba	-0.16329852
73	0xbc6a4a4d	-0.014299941
74	0x3df62383	0.12018492
75	0xbca64f9f	-0.020301638
76	0x3dbcf928	0.0922721
77	0xbe298071	-0.16552903
78	0x3d19e8ea	0.03757564
79	0x3db11e81	0.08648396
80	0xbc16b5b4	-0.009198595
81	0xbcd4c30e	-0.025971916
82	0x3da43916	0.08018701
83	0xbd1b7d0d	-0.037961055
84	0x3cb7ed76	0.022452097
85	0xbe31e358	-0.17371881
86	0xbd273502	-0.040822037
87	0x3c97e45a	0.018541504
88	0xbe1206cd	-0.14260407
89	0xbe34776b	-0.1762368
90	0x3dd567e2	0.10420205
91	0xbd3f9a16	-0.046777807
92	0x3d2d7c1c	0.042354688
93	0xbdfad95e	-0.12248491
94	0xbd89e498	-0.06733054
95	0x3d7d3b94	0.061824396
96	0x3d0117b4	0.031516746
97	0x3de49178	0.111605585
98	0x3d964c26	0.07338743
99	0x3c8f2a8b	0.01747634
100	0x3dbc27fb	0.09187313
101	0x3e15817d	0.14600177
102	0x3d960b2e	0.07326351
103	0x3d8aa189	0.06769092
104	0x3d7555c0	0.05989623
105	0x3d4a9c4c	0.049465463
106	0x3d7a273b	0.06107257
107	0x3ce1a92a	0.027546484
108	0xbdd81094	-0.10550037
109	0xbba7d31d	-0.005121602
110	0xbe0f1428	-0.13972533
111	0x3d3c8693	0.046026777
112	0xbd1840e4	-0.03717126
113	0xbe08a9ca	-0.1334602
114	0x3d5b4bdf	0.053539153
115	0xbe0bccac	-0.13652295
116	0xbd111ccd	-0.035427857
117	0xbe045965	-0.12924726
118	0x3e023101	0.12714006
119	0x3dabfe0c	0.08398065
120	0xbd6122bf	-0.054964777
121	0xbe3606e3	-0.17776065
122	0x3e16b70a	0.14718261
123	0xbdace2f6	-0.08441727
124	0xbe02a80e	-0.1275942
125	0xbce415d4	-0.02784244
126	0xbd6b5377	-0.057452645
127	0x3c6e48a5	0.014543687
128	0x3d7a51ce	0.06111317
129	0xbe2c86b0	-0.16848254
130	0xbdeccfe0	-0.115630865
131	0xbdce843a	-0.10083814
132	0xbe2e8f2c	-0.17046803
133	0x3dbfd277	0.09366315
134	0x3da9eb53	0.08296838
135	0x3d988023	0.07446315
136	0xbe233b4d	-0.1594059
137	0x3d1d37cd	0.038383294
138	0xbdbdfb55	-0.092764534
139	0x3d5146b3	0.051092815
140	0xbe2a7a5b	-0.16648237
141	0xbdf14f84	-0.117827445
142	0xbe192594	-0.14955741
143	0xbda31841	-0.079636104
144	0xbd3620dd	-0.044464935
145	0x3d06fb66	0.032954596
146	0xbc475898	-0.0121671185
147	0xbb7cfe08	-0.0038603563
148	0x3c8cd8dc	0.01719325
149	0xbddf68dc	-0.10908672
150	0xbdda5352	-0.10660423
151	0xbe1c1fd4	-0.15246516
152	0xbcadfcb0	-0.021238655
153	0xbcc9ca66	-0.024632644
154	0x3d7e9887	0.06215718
155	0xbda9575c	-0.082686156
156	0xbbc534f6	-0.0060182763
157	0x3ccad789	0.024760978
158	0x3d59c22c	0.053163692
159	0xbdfd154c	-0.12357578
160	0xbe357b19	-0.1772274
161	0x3e0a4fc4	0.1350699
162	0x3d16a0ac	0.036774322
163	0xbe0ed479	-0.1394824
164	0x3ca69c37	0.02033816
165	0xbd5a1bc3	-0.053249132
166	0xbd2a6f79	-0.041610215
167	0xbd97e79d	-0.074172236
168	0xbdbf9741	-0.09355021
169	0xbd131f46	-0.035918497
170	0xbd11b5ba	-0.0355737
171	0xbda7989e	-0.08183406
172	0x3af611dc	0.0018773633
173	0x3d6ac5d6	0.057317577
174	0xbce87059	-0.028373884
175	0xbbf341bc	-0.0074236076
176	0xbd633869	-0.05547372
177	0xbe002558	-0.12514246
178	0xbd81880a	-0.063247755
179	0xbe08ce05	-0.1335984
180	0x3d23e8a1	0.040016774
181	0x3dce0b41	0.1006074
182	0x3dc3b7f8	0.09556574
183	0x3e101d20	0.1407361
184	0xbddaaea7	-0.106778435
185	0xbceaaf50	-0.028648049
186	0x3d4734de	0.048634402
187	0x3d5df72e	0.054190807
188	0x3da7f540	0.082010746
189	0x3df2c610	0.11854184
190	0xbd940053	-0.07226624
191	0x3d8307f7	0.063980035
192	0xbde246b5	-0.110486425
193	0x3df26326	0.11835317
194	0xbd8b0c64	-0.06789473
195	0xbddc8ae7	-0.10768681
196	0xbe069d87	-0.1314603
197	0xbda65249	-0.081211634
198	0x3e022ba5	0.12711962
199	0x3d438254	0.047731712
200	0xbe276267	-0.16346131
201	0xbd15e7a6	-0.03659787
202	0x3db8648a	0.09003551
203	0x3d64a8d1	0.05582506
204	0xbcd7793e	-0.02630293
205	0x3e060200	0.130867
206	0xbb7a9119	-0.0038233458
207	0xbb703efe	-0.003665864
208	0x3e0154f2	0.1263006
209	0x3ddd9f77	0.10821431
210	0xbc20b724	-0.009809289
211	0xbe2137ac	-0.15743893
212	0x3df8be5e	0.12145685
213	0x3d60344f	0.054737385
214	0xbe2ac42e	-0.16676399
215	0x3c245cde	0.010031907
216	0x3d17f3bc	0.037097678
217	0x3d5a705c	0.05332981
218	0x3c19008a	0.009338507
219	0xbd62e272	-0.055391736
220	0xbdd6b7f1	-0.10484303
221	0x3d1954ba	0.037434317
222	0xbc5f223a	-0.013619
223	0x3e166e06	0.14690408
224	0xbdf99b12	-0.121877804
225	0xbe3833bd	-0.17988487
226	0x3dc678dc	0.09691021
227	0xbd6a77ab	-0.05724303
228	0x3b04b4d6	0.0020249388
229	0xbe1d0d11	-0.15337016
230	0xbdb5964e	-0.08866559
231	0xbe2eef8a	-0.17083564
232	0x3d0eab3c	0.03483127
233	0xbd1d32bb	-0.03837846
234	0xbe0eaa1d	-0.1393208
235	0x3d10679c	0.03525506
236	0xbccecb24	-0.02524335
237	0xbe0b8662	-0.13625482
238	0xbd7f79f0	-0.062372148
239	0x3d52d375	0.051471192
240	0xbdb1c6cf	-0.08680498
241	0x3bda8960	0.0066692084
242	0x3dca1f3c	0.09869239
243	0xbdebd3aa	-0.11514981
244	0x3de99917	0.11406153
245	0xbd42b2fb	-0.04753397
246	0x3e02e824	0.12783867
247	0xbb3773d6	-0.0027992628
248	0x3d48a366	0.048983954
249	0x3d394441	0.045231108
250	0x3db7fb84	0.0898352
251	0xbdb61351	-0.08890403
252	0xbdce9b3f	-0.100882046
253	0xbe0de0f0	-0.13855338
254	0xbdd1da34	-0.10246697
255	0x3dac09b6	0.0840029

sequential/dense_1/Tensordot/MatMul f4 [16, 16]
0	0xbe715241	-0.23566534
1	0x3e927b65	0.28609768
2	0xbd73d3a1	-0.059527997
3	0xbd06baaa	-0.03289286
4	0x3e3dae35	0.18523486
5	0xbdf65f3c	-0.12029883
6	0x3ecd0167	0.40040132
7	0xbe226fc4	-0.15862948
8	0x3d2acd6b	0.041699808
9	0xbeeb3ff3	-0.45947227
10	0x3eacc51b	0.3374413
11	0xbe8c9e52	-0.2746454
12	0xbdeb4ac8	-0.11488873
13	0x3dadcd9c	0.084864825
14	0x3ea607e1	0.32427886
15	0xbea30ddb	-0.31846508
16	0xbe2a6735	-0.16640933
17	0x3e0bc96d	0.13651057
18	0x3eab9ef7	0.33519718
19	0xbd92f6df	-0.07175993
20	0x3e219cb4	0.15782434
21	0xbd85d76f	-0.06535231
22	0x3dceefa4	0.101043016
23	0xbe2755e8	-0.16341364
24	0xbe892e90	-0.26793337
25	0x3e2e1c2f	0.17002939
26	0x3ea98a88	0.33113503
27	0xbebadce4	-0.3649665
28	0xbe3cab3e	-0.18424699
29	0xbc33f1a0	-0.010982901
30	0x3dd5f04a	0.10446222
31	0xbed482fc	-0.41506183
32	0x3e40a6a1	0.18813564
33	0x3ecab101	0.39588168
34	0x3de308d3	0.110856675
35	0xbe3c0697	-0.18361889
36	0xbe26cd8b	-0.16289346
37	0x3e706b1d	0.2347836
38	0x3ea421e7	0.32057115
39	0xbe96ae0b	-0.2942966
40	0x3ec3007a	0.380863
41	0x3eb15f8d	0.34643212
42	0xbebce8bf	-0.3689632
43	0xbec85bfd	-0.3913268
44	0x3e3a59b4	0.18198282
45	0x3e31ef26	0.17376384
46	0xbe03e908	-0.12881863
47	0xbecf1228	-0.4044354
48	0x3d1238a1	0.035698537
49	0xbe4b9954	-0.19882709
50	0xbda32756	-0.07966487
51	0xbc2312b8	-0.009953193
52	0x3ea38feb	0.31945738
53	0xbed878a8	-0.42279553
54	0x3ead94ca	0.3390258
55	0xbeb88306	-0.36037463
56	0xbdab0274	-0.08350077
57	0xbe5e14af	-0.21687578
58	0x3e971889	0.29510906
59	0xbe092181	-0.13391687
60	0xbd8a7b85	-0.06761841
61	0xbe626527	-0.22108899
62	0x3e23e0a3	0.16003661
63	0x3e83ab09	0.25716427
64	0xbe483582	-0.19551662
65	0xbe9b48f0	-0.30329084
66	0x3d293af6	0.041315995
67	0xbd722a20	-0.059122205
68	0xbea92887	-0.33038732
69	0xbd0880c4	-0.033325925
70	0x3e99e8da	0.30060464
71	0x3e283fdf	0.16430615
72	0xbeb76c7f	-0.35824963
73	0xbe13f0bf	-0.14447306
74	0xbe8e97c8	-0.27850175
75	0x3eb202a4	0.3476764
76	0xbe126e06	-0.14299783
77	0xbeb9c2e7	-0.3628151
78	0xbea32694	-0.3186537
79	0xbea86166	-0.3288681
80	0x3e11364b	0.14180867
81	0xbd9269bb	-0.07149073
82	0xbe90cf35	-0.28283086
83	0x3e5fb5a7	0.21846639
84	0xbe9b39a9	-0.3031743
85	0x3d2aae00	0.041669846
86	0xbd4a07a6	-0.0493237
87	0x3ebca377	0.36843464
88	0xbe358c94	-0.17729408
89	0x3d9dc37c	0.07703301
90	0xbe9e3b86	-0.30904788
91	0xbde00487	-0.109383635
92	0x3e9aa49d	0.30203715
93	0x3eafa5c5	0.3430616
94	0xbdae2983	-0.085040115
95	0x3e2b583e	0.1673288
96	0x3e94ff95	0.29101244
97	0x3da9775c	0.08274719
98	0x3e8869a9	0.26643112
99	0xbe23eb14	-0.16007644
100	0x3d032cb3	0.03202505
101	0xbc290e47	-0.010318345
102	0xbd1e0b00	-0.03858471
103	0x3b478634	0.0030444982
104	0xbc73786b	-0.014860253
105	0xbec15005	-0.37756363
106	0xbd053b88	-0.032527477
107	0xbd97fa80	-0.07420826
108	0xbed38630	-0.41313314
109	0x3e221486	0.15828142
110	0xbd966702	-0.07343866
111	0xbdc6c624	-0.09705761
112	0x3d965004	0.073394805
113	0xbe5feca0	-0.21867609
114	0xbe882517	-0.26590797
115	0x3e1e137b	0.15437119
116	0x3ea58f3a	0.32335836
117	0xbcf032da	-0.029321123
118	0x3da5d20b	0.08096703
119	0xbe937c13	-0.288056
120	0xbe4ca414	-0.19984466
121	0xbe915350	-0.28383875
122	0x3eae0812	0.33990532
123	0x3e69d667	0.22835694
124	0x3e86866c	0.2627443
125	0xbeab9b0c	-0.3351673
126	0xbe47aa9f	-0.1949868
127	0xbdaec5a0	-0.08533788
128	0x3ea3dc78	0.32004142
129	0x3eb625d6	0.35575742
130	0x3e5e444e	0.21705744
131	0xbedf67b6	-0.43633813
132	0x3e4cf86e	0.20016643
133	0x3ebed0e7	0.37268755
134	0xbe29dbe0	-0.16587782
135	0xbe110093	-0.14160375
136	0x3e37371d	0.17892118
137	0xbdd7048e	-0.104989156
138	0xbe9fdab9	-0.3122156
139	0xbe8afd46	-0.27146357
140	0x3d320338	0.0434601
141	0xbe73cd27	-0.23808728
142	0xbe63d3be	-0.22248742
143	0x3d3c5750	0.045981705
144	0xbcb9d0d3	-0.022682583
145	0x3e7caada	0.2467455
146	0xbdfc5cac	-0.12322363
147	0x3dae5808	0.085128844
148	0x3e947cf6	0.29001588
149	0x3d1dd650	0.038534462
150	0x3e884b30	0.26619864
151	0x3e772b62	0.24137643
152	0xbdcc7315	-0.09982888
153	0xb97079b8	-0.00022933527
154	0xbd164a15	-0.036691744
155	0x3d971ba5	0.0737832
156	0xbe0a4329	-0.13502182
157	0x3dbc077c	0.09181115
158	0x3e499cd0	0.19688725
159	0xbd82b4d8	-0.063821495
160	0x3eca6ea6	0.39537543
161	0x3eafeb6f	0.3435931
162	0xbda56261	-0.08075405
163	0xbeac1ad0	-0.33614206
164	0x3e16e113	0.14734297
165	0x3eaba937	0.33527538
166	0xbec7aeab	-0.3900045
167	0xbe5ca2db	-0.215465
168	0x3dedd16f	0.11612212
169	0xbebc8f1c	-0.36827934
170	0xbeeaa15e	-0.45826238
171	0x3ecb90d3	0.3975893
172	0xbe57d87e	-0.21078679
173	0x3ed7a8cb	0.42120966
174	0xbe7cf85e	-0.2470412
175	0xbe8f6c22	-0.28012186
176	0xbebbcf98	-0.3668182
177	0x3e8f95b0	0.2804389
178	0x3eca2c48	0.3948691
179	0x3ebd7898	0.37006068
180	0xbdd1bb9e	-0.10240863
181	0xbe41d511	-0.18928935
182	0xbe5206b9	-0.20510377
183	0x3e7a722d	0.24457617
184	0xbe8e0326	-0.27736777
185	0x3e65ac8c	0.22429103
186	0xbe42d3af	-0.19026063
187	0xbeea09cf	-0.45710608
188	0xbec6ea8b	-0.38850817
189	0xbe81724c	-0.25282514
190	0x3e332fe8	0.17498744
191	0xbe76b9cd	-0.24094315
192	0x3ed16a1d	0.4090127
193	0xbe361e6b	-0.17785041
194	0xbe47f55f	-0.19527195
195	0x3bd19ecc	0.006397104
196	0x3d2399a7	0.039941456
197	0xbdf10be5	-0.11769847
198	0xbebda471	-0.3703952
199	0xbe961aae	-0.2931723
200	0x3dfc3629	0.12315018
201	0xbc325fef	-0.01088713
202	0xbdfd39da	-0.1236455
203	0xbedc9d75	-0.4308888
204	0xbe25ee99	-0.16204299
205	0xbe6a81ef	-0.22901128
206	0xbdc446e3	-0.09583833
207	0x3e51c5fe	0.20485684
208	0x3e943f7f	0.28954694
209	0xbe395eb8	-0.18102539
210	0xbea79fa1	-0.32738975
211	0x3e9352bd	0.28774062
212	0xbd4878b4	-0.048943236
213	0xbe279958	-0.1636709
214	0x3ebc9d10	0.3683858
215	0xbe138a7e	-0.144083
216	0xbe5fea1d	-0.21866651
217	0xbeb41006	-0.35168475
218	0x3ebb18e2	0.36542422
219	0xbe549fe6	-0.20764121
220	0x3e9053b7	0.2818887
221	0x3d8d4e54	0.068997055
222	0xbeb4eb58	-0.35335803
223	0xbed25b76	-0.41085404
224	0x3e0ad81d	0.13559003
225	0x3c2be62c	0.010491889
226	0x3ead4fd5	0.3384997
227	0xbe92f211	-0.28700307
228	0x3ec4da80	0.38447952
229	0xbe768522	-0.24074224
230	0x3e8042a9	0.25050858
231	0x3de2d2f0	0.110753894
232	0xbeb20fd1	-0.34777692
233	0xbe4dd5d2	-0.20101097
234	0x3d3b3c87	0.04571202
235	0xbeb80547	-0.35941526
236	0xbe971bed	-0.29513493
237	0xbe2c4882	-0.16824535
238	0x3ddb0f80	0.10696316
239	0xbe663770	-0.22482085
240	0x3eabc042	0.3354512
241	0xbca990c2	-0.020698909
242	0x3e801730	0.2501769
243	0xbedf511c	-0.4361657
244	0xbde0f968	-0.109850705
245	0x3e85a526	0.2610256
246	0x3ea17383	0.3153344
247	0x3c628ad0	0.013827041
248	0x3e5b298c	0.21402568
249	0xbb155adf	-0.002278976
250	0x3eada1a0	0.33912373
251	0xbec1f0e6	-0.37879103
252	0x3ebe2139	0.37134722
253	0xbe14694a	-0.1449329
254	0xbd5a694d	-0.05332308
255	0x3e53bf3e	0.20678422

sequential/dense_2/Tensordot/MatMul f4 [1, 16]
0	0x3e7b9dc9	0.24571909
1	0x3dd8f7bd	0.10594127
2	0xbef20f4d	-0.472773
3	0xbeec45bd	-0.46146956
4	0x3cec16e7	0.028819514
5	0xbb9fad71	-0.0048729707
6	0xbe698e7c	-0.2280826
7	0x3d311faa	0.043243088
8	0xbdbc337a	-0.09189506
9	0x3d351b52	0.044215508
10	0xbc8b698d	-0.017018104
11	0x3ec9f91e	0.39447874
12	0xbee967bc	-0.45586956
13	0x3efbbb97	0.49166557
14	0xbd11672d	-0.035498787
15	0x3ece6449	0.40310887
